data.pth (torch, 14207 bytes, 6 tensors)

l1.weight f4 [8, 177]
000000 85 d9 98 3f be 3c 21 3f 6c 36 0a 3f fd 73 6c bf
       1.1941382 0.6298331 0.5398929 -0.92364484
000010 fa 67 2d 3f cb 70 8f 3f c0 92 99 3f 75 ba 45 3f
       0.6773678 1.1206297 1.199791 0.77237636
000020 4e 17 6d be 46 41 16 40 80 27 e3 3e 37 55 c3 be
       -0.23153421 2.347734 0.44366074 -0.3815095
000030 a3 ee 01 be 42 c5 4c 40 95 95 01 3f 22 98 3c bf
       -0.12688689 3.1995397 0.5061887 -0.73669636
000040 79 73 23 40 ae e5 84 3f be 10 2e 40 d4 08 11 3f
       2.553923 1.0382593 2.7197719 0.56654096
000050 76 d8 bd bf 71 02 be 3e 6b 97 68 40 92 a3 46 40
       -1.4831684 0.37111238 3.6342418 3.1037335
000060 c2 a8 37 40 a4 65 9b 3f 10 17 9d 3f 8f b1 40 3f
       2.8696752 1.2140393 1.2272663 0.7527093
000070 5b 5c 33 bf 27 b3 a8 3e 8e b6 dd bc 4a af 79 bf
       -0.700628 0.32949182 -0.027064588 -0.97533095
000080 9f 3d 21 3f 5a 25 60 3e a7 34 d7 3f 8e cd 2a 40
       0.6298465 0.21889248 1.6812943 2.668796
000090 05 ca 92 3f 61 58 40 bc 60 86 01 40 23 00 4f bf
       1.1467901 -0.011739821 2.0238266 -0.80859584
0000a0 20 82 6f 3f 98 50 d6 be 1b 97 03 be 1a 2e 41 bf
       0.9355793 -0.41858363 -0.12850611 -0.7546097
0000b0 38 20 62 bf 5d 9c 5f be 2c ee b8 bf 5e f4 02 40
       -0.8833041 -0.21836992 -1.4447684 2.046165
0000c0 14 2e 13 bf 6a 5b 41 bf a5 93 81 3f da c5 90 bd
       -0.57492185 -0.7553011 1.0123183 -0.07068987
0000d0 cc a6 49 3f 48 a4 3f 3f 09 f9 bb 3c 7e f0 52 be
       0.78770137 0.7486005 0.022945898 -0.20599553
0000e0 26 4c 61 3f b1 4f 21 3f 20 09 c5 bf 60 98 f4 3e
       0.8800682 0.63012224 -1.539341 0.47772503
0000f0 08 1f c6 bd 91 4e d4 3f 00 e6 1f 3f 8a 93 ab 3f
       -0.096738875 1.6586477 0.6246033 1.34044
000100 c2 94 a7 3e af 05 ad 3f 44 3b 11 3e a0 97 08 bf
       0.3273068 1.351736 0.14182764 -0.5335636
000110 c7 db 34 40 41 37 4f bf f6 d5 3e bf 02 c1 3d bf
       2.8259141 -0.80943686 -0.7454523 -0.7412263
000120 97 31 3f bf 0e e0 03 40 7a 0e 3e bf 94 94 3d bf
       -0.74685043 2.0605502 -0.7424084 -0.7405484
000130 18 ba 3e bf cd f7 11 be c1 43 03 40 fd dc 3e bf
       -0.74502707 -0.14254685 2.0510104 -0.7455595
000140 37 10 41 bf c1 a3 40 bf c4 b2 a0 3f 2c 45 a6 bd
       -0.75415367 -0.7524987 1.2554555 -0.08118662
000150 4e 75 22 3f 48 fe 4a bf 15 0e b7 be 89 f3 9b 3f
       0.6346024 -0.7929425 -0.3575293 1.2183696
000160 a3 5c a0 be 67 ab 6b be d6 1e dd bc 4f ee 4c 3d
       -0.31320676 -0.23014604 -0.026992243 0.050031956
000170 05 60 68 3f 01 32 00 40 43 fc 6c 3e b2 7c e1 3f
       0.90771514 2.003052 0.23143105 1.7616179
000180 f1 e1 79 3f 92 14 c7 3f 36 78 26 3f 0b 85 7b 3f
       0.97610384 1.5553153 0.6502718 0.9824988
000190 98 38 cb 3f 19 1d 6e 3f 97 63 f5 bf af 9c 32 bf
       1.5876646 0.9301315 -1.9171017 -0.6977033
0001a0 78 51 5b 40 d4 ac 40 bf 74 b6 4a 3f a5 2e 29 be
       3.4268475 -0.75263715 0.7918465 -0.165217
0001b0 42 14 57 be d6 be 60 3e 4a 10 aa 3f cc 81 2d 40
       -0.21003821 0.21947798 1.3286221 2.7110472
0001c0 f6 d9 17 3d 6c cb 6b 3e a0 63 76 3f 49 87 07 3e
       0.037073098 0.23026818 0.96245766 0.13235201
0001d0 2d d0 91 bc 5e 89 bb 3f 1b 28 52 3f 40 0b ac 3f
       -0.017799461 1.4651296 0.82092446 1.3440933
0001e0 d6 14 98 3e 53 fb 1d bf bc d1 2e 40 1c b7 bd 3f
       0.29703397 -0.61711615 2.7315512 1.4821506
0001f0 25 0d ae 3f e5 2e 08 40 f9 18 f7 3f 74 66 bf 3f
       1.3597761 2.1278622 1.9304496 1.4953141
000200 67 42 f3 3f 9e 04 b6 3e ab d8 49 3f 83 dc 74 3f
       1.9004639 0.35550398 0.78846234 0.95648974
000210 24 44 44 3f ff a3 85 3f 72 00 35 3f ec 05 c3 3f
       0.76666474 1.0440673 0.70703804 1.5236182
000220 18 77 14 3f de 0f 2a 3f bc 8c 2e 3f a3 74 cd 3e
       0.5799422 0.6643046 0.68183494 0.4012805
000230 f4 f5 85 3f aa 18 f9 3f 76 56 c4 be 0f 9e 3b 3f
       1.0465684 1.9460652 -0.38347214 0.73288053
000240 ea 24 f3 3f 0d e1 87 3f a5 d5 18 be 93 51 e5 3f
       1.899564 1.0615555 -0.14925249 1.791552
000250 61 8b 76 bf ee 6a 54 3e f8 7b d9 3d e5 28 16 3f
       -0.96306425 0.20743915 0.10619348 0.5865615
000260 aa 9c 73 3f 1e da 6b 3f 4a 02 15 40 5c 6a ec 3f
       0.95160925 0.92129695 2.3282647 1.8469958
000270 d7 8f 6c 40 e9 c1 e4 3f f9 93 5f be 79 1b 70 3f
       3.6962793 1.7871677 -0.21833791 0.9379192
000280 b6 6c 0a 40 13 9c a2 3e cc 3d a0 3f 96 a0 d9 3e
       2.1628852 0.317597 1.2518859 0.4250533
000290 76 28 cc 3f f0 e8 34 3f d3 a3 2b be 2c 82 0c 40
       1.5949848 0.70667934 -0.16761713 2.195445
0002a0 69 1b b0 3c b3 eb e5 3e f2 9b 82 bf 5c 0e c4 3d
       0.021497445 0.44906387 -1.0203841 0.09573051
0002b0 f8 71 a4 3f 49 dd b2 3d fa 91 f6 3f b0 ba b4 3f
       1.284728 0.08733613 1.9263299 1.4119473
0002c0 cd 41 30 40 5d a8 92 3f ce ba db 3e 32 80 90 3e
       2.7540162 1.145763 0.42915958 0.28222805
0002d0 dc ab 59 3f da bf 51 3f 35 6e 13 3f 03 8f a4 be
       0.8502786 0.8193337 0.5759004 -0.3214036
0002e0 ab d3 bc 3c d5 f8 3f 3f e7 34 a9 3f 12 79 81 3f
       0.02305015 0.7498906 1.321927 1.0115073
0002f0 08 03 08 3f 6b 52 cb 3e ea 44 c3 3e 03 a7 d1 3e
       0.53129625 0.39711317 0.38138515 0.40947732
000300 b1 7c 8e 3e bc c4 1e 40 a3 c1 2c bf 12 ef a3 bd
       0.27829507 2.4807577 -0.67482966 -0.080045834
000310 88 35 e9 3e 5b 04 5f bf d2 5a 89 3e 18 15 67 3f
       0.45548654 -0.8711602 0.26827103 0.9026656
000320 1e 65 c4 3f f4 6f 55 3f 1e 69 84 be 24 72 70 be
       1.5343359 0.8337395 -0.25861448 -0.23481041
000330 bc d4 0b 3f 9c d8 9f 3f 22 b3 9e 3e db 6f d6 3f
       0.5462148 1.2487979 0.30996042 1.6752886
000340 67 c2 14 3f 9a 7b 5b 3d 7b 80 61 3e 14 76 36 3f
       0.58109134 0.053584673 0.22021668 0.7127392
000350 5c 50 9d bf b3 d8 7b 3d 6d 92 ac 3e 1d 6f a6 3f
       -1.2290149 0.061485957 0.33705464 1.3002659
000360 88 ed 03 be 1c 02 c7 3e f8 16 fe 3f 41 d3 1a 40
       -0.1288358 0.38868797 1.985076 2.419144
000370 2f ea 43 3f 92 00 21 40 3f d6 3d 3f 26 99 cc be
       0.7652921 2.5156598 0.7415504 -0.39960593
000380 ed 23 ae bd 9d d6 af 3f 94 4b 0f 3f 89 59 25 bf
       -0.08502946 1.373737 0.559747 -0.64589745
000390 ed af 05 3f f1 a5 07 3f 4e 05 b5 3f b7 82 b2 3f
       0.52221566 0.5298758 1.4142244 1.3946141
0003a0 f3 6f 34 3f b2 df eb 3f 89 d5 c0 3f 9a f6 4c bf
       0.7048332 1.8427641 1.5065166 -0.80063784
0003b0 fe a5 78 3f 82 c6 43 3e 9e 8c 32 40 db fc fa 3b
       0.97128284 0.19118693 2.7898326 0.0076595373
0003c0 0a 28 1f 3f 05 0b e6 3e 7c 07 ae 3f 25 57 bc be
       0.6217047 0.44930282 1.3596034 -0.36785236
0003d0 50 6a 00 40 07 b7 3a 3f 10 80 31 bf 79 12 89 3d
       2.0064888 0.7293553 -0.6933603 0.066929765
0003e0 7c c6 cd 3d 68 3b c1 be e3 f9 c4 3f e8 0c cc 3d
       0.100476235 -0.37740636 1.5388759 0.09963399
0003f0 49 44 10 3e 6d 18 c4 be b1 25 5a 3f 79 35 a7 bd
       0.14088549 -0.38299885 0.8521376 -0.08164496

l1.bias f4 [8]
000000 c6 56 33 3f 92 2c 97 3f 93 a2 50 3f 70 e3 0f 3f
       0.7005428 1.1810477 0.8149807 0.5620642
000010 05 fc 5a 3f d9 c6 4a 3f 6e 10 a3 3f 24 7e 52 3f
       0.855408 0.7920967 1.2739389 0.82223725

l2.weight f4 [8, 8]
000000 57 c9 e5 3e 02 13 ac 3f 9d 36 93 3f 33 a6 ca 3f
       0.44880173 1.3443301 1.1501042 1.583197
000010 8b 12 a1 bf c9 27 8d 3b 5e 69 ab be 38 e1 44 bf
       -1.2583784 0.0043077213 -0.33478826 -0.76906157
000020 5b ce fb 3f dc 4f 19 3f 4b 58 04 40 0e 68 63 bf
       1.967235 0.5988748 2.067889 -0.8883065
000030 3e ba 02 40 02 7f ea bf 42 63 17 3e a2 09 6f bf
       2.0426173 -1.832001 0.14783958 -0.93374074
000040 e0 19 2b be f1 e1 e5 3f 55 4b 35 40 0d ce f4 3e
       -0.1670909 1.7959577 2.832723 0.47813454
000050 1f f7 2c bf 90 84 be b9 31 94 b8 bf 85 bf 88 bf
       -0.67564577 -0.0003633839 -1.4420224 -1.0683447
000060 18 9c eb bf d0 73 80 3f 04 6b aa 3d 0b 16 09 40
       -1.8407011 1.0035343 0.08321193 2.1419704
000070 a2 6b 35 40 93 74 0c 40 3e 64 fd bf 30 f5 35 bd
       2.8346944 2.1946151 -1.9796216 -0.044423282
000080 2e c0 d5 bf 4b 7c e1 bf a6 1e 11 40 0e 83 3a 40
       -1.6699274 -1.7616056 2.2674956 2.914249
000090 76 46 79 3e 16 10 f6 3e 94 34 ca 3f f7 e1 3a bd
       0.24343285 0.48059148 1.5797296 -0.045625653
0000a0 16 12 8e bf ac 4c 16 40 5d 70 b5 be d3 a8 32 3e
       -1.1099269 2.3484297 -0.3543729 0.17447214
0000b0 62 7f a2 bf 2d e6 82 be 83 51 83 40 27 6b c5 be
       -1.2695124 -0.25566235 4.1037 -0.38558313
0000c0 31 f5 8e bf 99 66 cc 3f c1 3b 89 be f0 5a 89 bd
       -1.1168576 1.596881 -0.268034 -0.06706798
0000d0 9f 33 fa 3f c4 da a0 3f 56 d0 1a 3f 1d 53 6d c0
       1.9547004 1.2566762 0.60474145 -3.7081978
0000e0 5c 14 6b 40 e2 34 1a 3f ff 3f 02 3f 5f ea 06 3b
       3.6731176 0.6023694 0.508789 0.0020586473
0000f0 12 99 5a bf 69 2e 29 40 a0 4e ce 3e a3 22 4b 40
       -0.85389817 2.6434577 0.4029436 3.173989

l2.bias f4 [8]
000000 88 af 99 bf de 02 60 3f 02 6f 51 3f c8 85 8d 3d
       -1.2006693 0.87504375 0.8181001 0.069102824
000010 fc 2d 40 bf 80 1e e5 3f e1 e6 b2 3c 10 d0 b1 bf
       -0.75070167 1.7899933 0.021838607 -1.3891621

l3.weight f4 [76, 8]
000000 b3 a3 7e 3f 64 9c 1b c0 b9 b9 ff bf bc 19 9e c0
       0.99468535 -2.4314203 -1.9978553 -4.9406414
000010 47 30 e5 3e 21 be f7 3d f3 d8 0a bf 35 c8 3c bf
       0.44763395 0.12096811 -0.5423729 -0.7374299
000020 ca 88 95 c0 4d c6 06 3f 6a 94 68 3f f3 1b fe be
       -4.672948 0.5264633 0.9085146 -0.496307
000030 35 56 ac c0 d2 0c 2a bf e9 f9 83 c0 f1 b6 8e 3d
       -5.3855233 -0.6642581 -4.1242566 0.06968487
000040 92 ce 34 c0 7d fa 65 bf 29 0a 99 c0 45 fe 68 bf
       -2.825108 -0.8983534 -4.7824903 -0.91012985
000050 eb fc c5 bf 61 12 7f 3d 50 fe 14 bf 12 67 f4 3e
       -1.546781 0.062273387 -0.5820055 0.47734886
000060 3a 89 2e be a2 73 3c 3f d9 46 f1 3e 1b c4 12 bf
       -0.17044535 0.7361394 0.47124365 -0.57330483
000070 28 4d fe be dd aa 6a c0 03 2f 22 c0 36 2c 43 bf
       -0.4966824 -3.6666787 -2.5341194 -0.76239336
000080 c8 3f cd c0 f5 de 25 be 61 17 96 c0 a6 05 12 c0
       -6.414036 -0.16198333 -4.690354 -2.2815948
000090 82 ef b6 c0 6b ed 7c 3f 64 2c 0e bf e7 fa c3 be
       -5.716737 0.9879977 -0.55536485 -0.3827736
0000a0 19 50 30 bf fd 37 35 c0 9a 28 00 c0 cd 52 93 c0
       -0.6887222 -2.8315423 -2.0024781 -4.6038575
0000b0 b3 a2 a6 c0 d3 2e ed 3e 59 4e 53 be da 6b 28 3f
       -5.2073607 0.46324787 -0.20635356 0.6578957
0000c0 b3 f2 df bf ee 86 9c be fd 95 ba be 4c 8d bf c0
       -1.7495941 -0.30571693 -0.36442557 -5.985998
0000d0 9f b1 39 3e b2 fb 9e bf 57 3e 73 c0 fd db c6 3e
       0.18134163 -1.2420561 -3.80068 0.38839713
0000e0 ef 93 70 c0 9a 57 2e 3f 8c c6 3d c0 2e 00 bb 3f
       -3.7590292 0.6810242 -2.9652433 1.460943
0000f0 96 47 6c bf 2d 84 2f c0 fc 58 97 3f 9b 85 58 c0
       -0.9229673 -2.7424424 1.1824031 -3.3831546
000100 73 b8 54 c0 29 e8 eb 3e 24 a7 ba bf fe 9d ab c0
       -3.323758 0.46075562 -1.4582257 -5.363036
000110 0e 60 81 c0 c5 c2 9e bf eb 3b a4 be be 02 0a 3f
       -4.0429754 -1.2403189 -0.32076964 0.53910434
000120 68 ce ab 3f ea 75 20 bf c4 32 dd 3e 52 ff 51 c0
       1.3422365 -0.6267992 0.43202794 -3.2812085
000130 04 5a 1b bf 57 29 08 bf 13 bb 9d c0 0a d8 28 bf
       -0.6068423 -0.5318808 -4.929086 -0.6595465
000140 b6 02 76 c0 c3 eb d1 bf e8 34 15 c0 27 3e b3 c0
       -3.8439155 -1.6400074 -2.3313541 -5.601337
000150 67 8c fc be 97 77 ba 3f f0 1c 03 be 16 61 40 c0
       -0.49325868 1.4567746 -0.12804008 -3.0059257
000160 e7 e1 fa bf f3 f8 84 bf fe 5b 4d 3f 89 97 da c0
       -1.960019 -1.0388473 0.80218494 -6.830998
000170 9f 02 68 3f 59 ee 3d 3d 14 53 6c c0 e5 d6 6c bf
       0.90629 0.046369884 -3.6925707 -0.92515403
000180 34 84 7c be ba d5 da bf 4f 03 53 3f 76 02 da bf
       -0.24659806 -1.7096474 0.82426924 -1.7032001
000190 8d c5 a1 c0 06 1d 2a 3e 0b 20 8e c0 a5 5e df 3d
       -5.055365 0.16612634 -4.4414115 0.10906724
0001a0 cc 33 4f 3f ae cb ab bf 84 9e 44 c0 32 31 3c c0
       0.8093841 -1.3421533 -3.072175 -2.9405026
0001b0 f1 ef aa bf 69 dd fb 3e 26 bb 92 c0 c2 fb 21 be
       -1.3354474 0.4919236 -4.5853453 -0.15818694
0001c0 74 0f 68 c0 52 2d dc c0 1e 43 02 c0 78 80 8a 3e
       -3.6259432 -6.8805323 -2.0353465 0.2705114
0001d0 fe e3 22 bf 26 61 a7 3e f0 99 0c be c6 47 16 bb
       -0.6362914 0.32691306 -0.13730597 -0.0022930964
0001e0 45 cc 97 c0 cf 08 71 bf d6 ab 97 c0 27 b5 8e bd
       -4.7436852 -0.94154066 -4.739726 -0.06968146
0001f0 98 bb b0 be a3 0a 3d c0 0f e6 79 3d 11 ac 32 3f
       -0.34518123 -2.9537742 0.061010417 0.697938
000200 0b 4f 7a 3d c0 00 5c bf 52 8b 28 3f c3 d6 4b c0
       0.061110537 -0.85938644 0.65837586 -3.184983
000210 e7 a9 b4 bb 7b f8 3d c0 da d2 f6 bf ab 67 46 3e
       -0.005513418 -2.968291 -1.9283097 0.19375484
000220 31 84 c7 bf 44 36 d2 3e 64 31 a9 3f 6b 11 72 be
       -1.5587217 0.41057026 1.3218198 -0.23639457
000230 2d 80 bd bd 13 ca 91 be 4d 53 ad c0 45 7d 05 c0
       -0.09252963 -0.28474483 -5.4164186 -2.0857708
000240 2b fa 01 c0 96 6d 8a c0 0e 40 39 3f 5d ba a4 be
       -2.030894 -4.325877 0.72363365 -0.32173434
000250 a9 b4 e6 c0 e3 bd 6d 3f 43 66 10 bd 15 f6 8b be
       -7.2095532 0.9286787 -0.035253774 -0.27336183
000260 65 59 e7 c0 b0 7f b9 3f 7c a8 05 3f cf 20 dc 3e
       -7.2296624 1.4492092 0.5221021 0.4299378
000270 10 6b e0 c0 b8 50 bc bf 33 7a 00 3f 18 b5 b4 bf
       -7.013069 -1.4712133 0.5018646 -1.4117765
000280 b4 94 8a 3f 8e 0f 8f bf c6 b8 82 3f 62 cb a2 be
       1.082663 -1.1176622 1.0212638 -0.31795794
000290 93 6a 14 3c 69 f1 1f bf 54 aa a4 bf 4a 45 4d c0
       0.009058612 -0.6247774 -1.286448 -3.207354
0002a0 8e 6d 18 3f 1e 9e 9c c0 de 07 70 3f e9 ad ab 3d
       0.5954217 -4.8943014 0.93762004 0.0838278
0002b0 5b 62 97 bf 9d 86 98 3d 9a d1 d1 3e 35 2a cd bf
       -1.1826891 0.074475504 0.40980226 -1.6028506
0002c0 3e 76 b8 be 27 b7 55 3e 07 a8 5a 3f 2b 83 12 3f
       -0.36027712 0.20870648 0.8541264 0.57231396
0002d0 34 71 09 3f 43 ab 44 c0 97 e6 30 bf 4c a2 7e c0
       0.5368836 -3.072953 -0.6910185 -3.9786558
0002e0 b1 92 e7 be 90 6c d7 c0 17 e5 f5 3e b3 13 55 bf
       -0.45229104 -6.7320023 0.48026344 -0.83233184
0002f0 3c c2 27 3f cc e2 ce be 52 ac d6 bf 55 2a 4e bf
       0.65530753 -0.40407407 -1.6771338 -0.80533344
000300 5b 98 a0 c0 d5 9b 98 3f 97 59 5b bf b7 78 f3 bf
       -5.018598 1.1922556 -0.8568358 -1.9021214
000310 ca bb 8d bd 0f 13 72 c0 b6 eb 47 c0 02 3c 15 bd
       -0.069205835 -3.7824132 -3.1237617 -0.03643418
000320 ba 71 83 c0 14 39 32 c0 70 ee 1c c0 14 b8 82 3d
       -4.1076326 -2.7847338 -2.452053 0.06382766
000330 fb 8d 29 bf 99 b4 0f 3e 82 4d a2 3f 63 a6 90 bf
       -0.6623227 0.14033736 1.2679904 -1.1300777
000340 9c 2e b8 be d8 d1 07 c0 56 f0 03 bf 17 83 93 3e
       -0.3597306 -2.1221828 -0.515386 0.2881095
000350 c2 a0 44 c0 c3 dd 20 bf 44 1d 39 3f 5e b0 82 be
       -3.0723119 -0.6283838 0.7231028 -0.25525182
000360 60 a2 1b 3e 39 29 ac c0 91 67 f7 bf bb 1d 65 bf
       0.1519866 -5.380032 -1.9328481 -0.8949849
000370 25 bd 17 c0 fd 38 35 3e fe 97 84 bf 86 09 c8 3e
       -2.3709195 0.1769752 -1.0358884 0.39069766
000380 90 9a 3b c0 02 08 bd c0 a9 ac 56 c0 a2 82 bb bf
       -2.9313087 -5.9072275 -3.3542883 -1.4649241
000390 4b 5e 5d 3f 96 2d 43 3f 27 01 8d 3e b1 a1 89 bf
       0.86472005 0.76241434 0.27539942 -1.0752469
0003a0 c3 c1 27 c1 df 63 9f bf a8 f6 5b c0 18 87 50 bd
       -10.484805 -1.2452353 -3.4369297 -0.050910085
0003b0 0b 25 1f 3f 18 df 84 3f bc 52 14 c0 12 a8 8d be
       0.621659 1.0380583 -2.3175497 -0.2766729
0003c0 f2 bf 84 bf 1c 13 c4 c0 08 fe 70 c0 5f f5 cf bf
       -1.0371077 -6.1273327 -3.7655048 -1.6246756
0003d0 7e 83 30 3e cc 10 23 3f b3 72 89 c0 e8 9b 8b 3d
       0.1723766 0.63697505 -4.2952514 0.06816846
0003e0 2d d3 76 3f 8e 72 0d be c1 b8 7a 3f a0 84 08 3e
       0.9641598 -0.1381323 0.9793816 0.13331842
0003f0 0b 9a 88 bf 85 ea 57 c0 fd 34 39 3f 5a 7b cc bf
       -1.067201 -3.373689 0.7234648 -1.5975144

l3.bias f4 [76]
000000 90 ee b6 3e 75 e1 f6 bc 22 5e 4b be 53 a5 a5 be
       0.35728884 -0.030136803 -0.19860128 -0.32352695
000010 7a b5 89 3e ca 15 01 bf 2b 27 48 be e3 5e 29 3f
       0.26896268 -0.5042387 -0.19546191 0.6616041
000020 96 ae b5 bd 36 77 5b bf 76 ea 12 bf 86 8d 99 bf
       -0.0887119 -0.85728776 -0.5738901 -1.1996315
000030 89 32 82 be 98 fa 75 bf 6b da 09 bf 4d 5f 9b be
       -0.2542918 -0.960855 -0.53848904 -0.30346146
000040 6d f9 61 be 02 4c b2 3d fe cd 81 3e be 07 3d 3f
       -0.22067805 0.087059036 0.25352472 0.7383994
000050 ba 1b 2b bf 11 5a 21 bf ae 07 b8 be c5 ed 67 bf
       -0.6683918 -0.63028055 -0.3594336 -0.9059718
000060 23 0b 28 3f 77 02 83 bf c0 63 9a bf 3a 4d 72 bf
       0.65641993 -1.0235127 -1.2061691 -0.9464909
000070 ce 01 bb 3e c0 ca 1f 3f 82 a2 72 3e 74 88 b8 bf
       0.36524814 0.62418747 0.23694804 -1.4416642
000080 d5 54 96 bf 06 af 04 3f a4 ed ae 3e d3 74 b9 bf
       -1.1744639 0.51829565 0.3416568 -1.4488777
000090 05 45 6c bd 85 92 40 bf 1a ec c6 3d 80 30 c4 be
       -0.05768301 -0.7522357 0.097130015 -0.38318253
0000a0 c7 b8 fe 3d 16 3d 8e bf 96 a6 13 3f 33 04 a0 3d
       0.12437587 -1.1112392 0.57676065 0.07813301
0000b0 98 74 93 bf 44 5f 70 be 6b c2 8a be d2 a6 ad 3d
       -1.1519957 -0.23473841 -0.27101454 0.08479084
0000c0 fd 0e a8 bd d5 72 4f bf 35 4c 6a be 26 7c 0c bf
       -0.08205984 -0.81034595 -0.22880633 -0.54876935
0000d0 34 74 c2 be d6 a5 fb be bc 7d c2 bf 3b 1b 1b 3e
       -0.3797928 -0.4914996 -1.5194621 0.15147106
0000e0 92 58 b4 be e7 80 bd be b6 27 fa 3e c0 2b 0b 3e
       -0.35223824 -0.37012407 0.48858422 0.13590908
0000f0 01 d8 36 3f 62 95 c4 be 69 ef 5d 3e 91 f3 76 3e
       0.71423346 -0.3839522 0.21673359 0.2411635
000100 a4 83 e9 3e 45 17 c8 be ed a3 cb be 9d 6d 63 3f
       0.45608246 -0.39080253 -0.39773503 0.8883913
000110 6e f3 9d 3f ed 19 0c 3f 29 c4 83 bf 08 12 54 be
       1.2339914 0.5472706 -1.0294238 -0.20710003
000120 00 92 c9 3e 56 c0 67 be 1c ff 38 bf 0f ef 41 3e
       0.39369202 -0.22631964 -0.72264266 0.1893885
